rknpu2/examples/rknn_multiple_input_demo/onnx_model/test.onnx (onnx, 1779 bytes, 4 tensors)

conv1.bias f4 [8]
0	0xbe6ff5eb	-0.23433654
1	0x3e816d67	0.2527878
2	0x3e83e363	0.2575942
3	0x3e7a60f3	0.24451046
4	0x3d814066	0.06311111
5	0x3e1afb9e	0.15135047
6	0x3e0a08b6	0.13479885
7	0x3e66541b	0.22493021

conv1.weight f4 [8, 1, 3, 3]
0	0x3da27050	0.07931578
1	0xbdd56ab0	-0.1042074
2	0xbe22dd43	-0.15904717
3	0x3e8faef6	0.28063172
4	0x3e8c007f	0.27344128
5	0x3dbfb1b6	0.093600675
6	0x3e8a29bb	0.26984963
7	0xbe04017b	-0.1289119
8	0xbe0a3fd8	-0.13500917
9	0xbe20f3f6	-0.15718064
10	0xbdb094d0	-0.08622134
11	0x3df3a046	0.11895804
12	0xbe88745c	-0.26651275
13	0xbe8427d4	-0.25811636
14	0xbe8ada8c	-0.27119863
15	0xbeaa0637	-0.33207867
16	0xbe21bec6	-0.1579543
17	0x3e4eab56	0.20182547
18	0xbde701cb	-0.11279639
19	0x3e62f670	0.22164321
20	0xbe92cce0	-0.28671932
21	0x3e3c0030	0.18359447
22	0x3e9149c6	0.28376597
23	0x3d06f856	0.032951675
24	0xbe8b258f	-0.27177092
25	0xbb8b5f00	-0.0042532682
26	0x3e7ea263	0.24866633
27	0xbe95cfaf	-0.29260013
28	0xbd308d2b	-0.04310338
29	0x3e994d40	0.2994175
30	0xbc1c2c56	-0.009532055
31	0x3ea2cafe	0.31795496
32	0xbea4248c	-0.32059133
33	0xbdd058db	-0.10173198
34	0x3e3b01e8	0.18262446
35	0x3e829588	0.25504708
36	0x3ea098e6	0.31366652
37	0xbc827a2b	-0.015927395
38	0x3e224ae3	0.1584888
39	0xbe9b83f4	-0.3037411
40	0x3e0c7e56	0.13720068
41	0x3e9070c3	0.2821103
42	0x3e8ec9cc	0.27888334
43	0x3c3178ab	0.010831992
44	0x3e88430a	0.26613647
45	0x3e127f88	0.14306462
46	0xbe4833c8	-0.19551003
47	0xbea86492	-0.3288923
48	0x3d6f3736	0.058402263
49	0xbea3142c	-0.31851327
50	0xbd754a16	-0.059885107
51	0x3e82d5a2	0.25553614
52	0xbe984ed2	-0.29747635
53	0x3dc1c790	0.09461892
54	0xbdfa3de0	-0.12218833
55	0xbe564a7b	-0.2092685
56	0xbaf69eab	-0.0018815597
57	0xbe97c1d6	-0.29640073
58	0xbe9e4198	-0.3090942
59	0xbe4882b3	-0.19581108
60	0xbe15ca30	-0.1462791
61	0xbe585cd8	-0.21129167
62	0x3d6566ab	0.056006115
63	0x3dcf4ce0	0.101220846
64	0x3d22e460	0.039768577
65	0xbd0ebfb6	-0.0348508
66	0x3e9ea0a7	0.30981943
67	0x3d80a2db	0.06281062
68	0xbdcb9016	-0.099395916
69	0xbdbc2e96	-0.09188573
70	0xbe088258	-0.13330972
71	0x3ea4146c	0.3204683

conv2.bias f4 [8]
0	0x3d9de96e	0.07710539
1	0x3e1f3834	0.15548784
2	0xbe4268e5	-0.18985327
3	0xbdabcf38	-0.08389133
4	0xbdbf279f	-0.09333729
5	0xbbb4d2fc	-0.0055183154
6	0x3e1c7e0c	0.15282458
7	0x3d0adba6	0.03390088

conv2.weight f4 [8, 3, 3, 3]
0	0x3e2bb743	0.16769128
1	0xbe3eae71	-0.18621232
2	0xbe2748fe	-0.16336438
3	0x3e2f2475	0.17103751
4	0x3d55b20e	0.05217176
5	0xbdbf72cc	-0.09348068
6	0xbe41b0bf	-0.1891508
7	0x3e1b080a	0.15139785
8	0xbe29791a	-0.16550103
9	0x3dec60a6	0.11541872
10	0xbc89773b	-0.016780486
11	0x3e3fdd32	0.18736723
12	0x3d1d700e	0.03843694
13	0xbe3a1b3d	-0.18174453
14	0xbdfd3f1b	-0.12365552
15	0x3dcc5bfb	0.099784814
16	0xbdb05394	-0.08609691
17	0x3ddf7baf	0.10912263
18	0xbdbb69e1	-0.09151054
19	0xbe2915f9	-0.16512288
20	0xbd8c4540	-0.06849146
21	0xbe0d9084	-0.1382466
22	0xbe0d0eb0	-0.13775134
23	0xbd6d0b38	-0.057872027
24	0x3bba82de	0.00569187
25	0xbdb1b653	-0.08677354
26	0xbdff0858	-0.12452763
27	0xbd1f9118	-0.03895673
28	0xbe2c3a35	-0.16819079
29	0x3e0dc7fb	0.13845818
30	0xbe29ae4d	-0.16570397
31	0xbcd1871d	-0.025577122
32	0x3e0e82c5	0.13917072
33	0x3bb6aeb8	0.0055750273
34	0xbe1c3c45	-0.15257366
35	0xbdae4a01	-0.08510209
36	0x3d51592a	0.051110424
37	0x3e0e1753	0.13876085
38	0x3bbe012f	0.005798481
39	0xbd3f9f3d	-0.04678272
40	0xbe3002d5	-0.1718858
41	0xbe13f366	-0.14448318
42	0xbe365e0c	-0.17809314
43	0xbe2525c7	-0.16127692
44	0xbd06f34b	-0.032946866
45	0xbe224bed	-0.15849276
46	0xbc0b9358	-0.008519016
47	0xbe37cc82	-0.17949107
48	0xbd5641cb	-0.05230884
49	0x3c9b96ac	0.018992744
50	0xbe22c81d	-0.1589665
51	0xbdb168be	-0.08662556
52	0xbe1b34c4	-0.15156847
53	0x3e39e22a	0.18152681
54	0xbe15a8cc	-0.14615172
55	0xbe2e495a	-0.17020169
56	0xbdf30d57	-0.11867779
57	0x3c7a7bb2	0.01528828
58	0x3de2e5f9	0.1107902
59	0xbdd3ffa6	-0.103514954
60	0x3de5ecb4	0.11226788
61	0x3e345fd5	0.17614682
62	0xbde33ef5	-0.110959925
63	0xbcdfeca1	-0.027334513
64	0x3d01bc6f	0.031673845
65	0xbc4ecb13	-0.012621659
66	0x3d99cb3c	0.07509467
67	0x3d9bd433	0.07608833
68	0xbdb75611	-0.08951963
69	0xbdf35b92	-0.118827
70	0xbc3673ed	-0.011136037
71	0x3d81575a	0.06315489
72	0x3c7d4bc0	0.015459955
73	0xbccbcdd8	-0.024878427
74	0x3e19a67f	0.1500492
75	0xbe15b5d1	-0.14620139
76	0x3e3fdad2	0.18735817
77	0x3e303579	0.17207898
78	0xbdc5c099	-0.09655876
79	0xbdc0da9e	-0.09416698
80	0x3e3ea494	0.18617469
81	0xbe05f58b	-0.13081948
82	0xbd25bf65	-0.04046573
83	0x3d550760	0.052008986
84	0x3e1f2b4c	0.1554386
85	0x3de7ab1e	0.11311935
86	0x3d1e543a	0.038654543
87	0x3d6d1378	0.057879895
88	0xbdd6a463	-0.10480573
89	0x3dd0b7f1	0.10191334
90	0x3c4e3d3d	0.0125878425
91	0x3e0fd059	0.14044322
92	0x3d6f3e16	0.05840882
93	0xbd340c0a	-0.043956794
94	0x3c9743c0	0.018464923
95	0x3dd1e55d	0.10248826
96	0x3d3d1dff	0.046171185
97	0x3dcd7c1e	0.10033439
98	0x3dc87e74	0.09789744
99	0xbde0f3a9	-0.109839745
100	0x3e30802f	0.17236398
101	0x3dc2d438	0.09513134
102	0x3e395e00	0.18102264
103	0x3e239f02	0.15978625
104	0xbdd17de9	-0.102290936
105	0xbe375a7a	-0.17905608
106	0xbe04d814	-0.12973052
107	0x3db8b992	0.0901977
108	0xbe093a46	-0.13401136
109	0xbdc37b1f	-0.09544968
110	0x3d783822	0.060600407
111	0x3d21955e	0.03944909
112	0x3e1d6005	0.1536866
113	0x3dae89d3	0.08522382
114	0x3e3a4a07	0.18192302
115	0x3e215554	0.15755206
116	0xbc851ec6	-0.016250025
117	0xbe1a62c6	-0.15076742
118	0x3d89e7be	0.067336544
119	0x3e3aa1a0	0.18225718
120	0x3d8311a0	0.06399846
121	0x3e315de6	0.17320976
122	0x3dc4f8fb	0.09617802
123	0x3d6116e7	0.054953482
124	0x3d81f965	0.06346396
125	0xbdaa8d21	-0.083276995
126	0xbe1ac715	-0.15115006
127	0x3dabec2b	0.08394655
128	0x3df44c2b	0.119285904
129	0xbcba4cef	-0.022741763
130	0xbd30f57a	-0.043202855
131	0xbe418c7d	-0.18901248
132	0xbb3d8f72	-0.0028924611
133	0xbe33eb8a	-0.1757032
134	0xbdeb2b02	-0.114828125
135	0xbd5dd8a0	-0.054161668
136	0x3d0dcac8	0.034617215
137	0x3e0e53ab	0.13899104
138	0xbe178578	-0.14797008
139	0x3d442b6b	0.04789297
140	0x3d3c205f	0.04592931
141	0xbe03e6df	-0.12881039
142	0xbe2094e0	-0.15681791
143	0x3da0d463	0.078530096
144	0xbdb35150	-0.087557435
145	0xbe249f73	-0.1607645
146	0xbe1e93d2	-0.15486076
147	0xbdbd42f5	-0.09241287
148	0xbce61913	-0.028088128
149	0x3d514cae	0.051098518
150	0x3e030589	0.1279508
151	0x3d7f0dde	0.062269084
152	0xbc6f759c	-0.014615443
153	0x3e0e3373	0.13886814
154	0x3e281d50	0.16417432
155	0xbcfe18ff	-0.031017778
156	0xbcf1bb4a	-0.029508252
157	0xbe2e278e	-0.17007276
158	0xbcace3ea	-0.021104772
159	0xbe35e498	-0.17762983
160	0xbdbdd54e	-0.092692
161	0x3e0607ce	0.13088915
162	0x3d1704f0	0.036869943
163	0xbc8b9fce	-0.017043974
164	0x3d99f4fc	0.0751743
165	0x3d8c7d91	0.068598874
166	0xbe3e88d9	-0.1860689
167	0xbd03418c	-0.032044932
168	0xbdcc5a08	-0.099781096
169	0x3d92e82d	0.0717319
170	0xbdffa3b3	-0.12482395
171	0x3c19ef55	0.00939544
172	0x3e2044e7	0.15651284
173	0xbdf1d990	-0.11809075
174	0xbd77874c	-0.060431764
175	0xbe182e60	-0.1486144
176	0x3da79391	0.08182443
177	0xbde0864d	-0.10963116
178	0x3e1ef8cd	0.15524597
179	0xbc986f02	-0.01860762
180	0x3cffc6bd	0.031222695
181	0x3e1968c0	0.14981365
182	0x3d206070	0.03915447
183	0x3d9ac42b	0.07556947
184	0x3ddae284	0.10687736
185	0x3ba643cd	0.0050740005
186	0x3da822f7	0.08209794
187	0xbd201d2d	-0.039090324
188	0xbe1300c9	-0.14355768
189	0x3d348426	0.04407134
190	0x3ce76956	0.02824847
191	0x3df40b3b	0.119162045
192	0x3deea9f6	0.11653511
193	0xbdd50287	-0.10400873
194	0x3d598d59	0.053113315
195	0xbd8baca6	-0.068200395
196	0xbbadfe93	-0.0053098886
197	0xbc49f023	-0.012325319
198	0xbd93b19f	-0.07211613
199	0x3da55997	0.080737285
200	0x3cfd8775	0.03094838
201	0x3d303a9c	0.043024644
202	0x3d9a2d94	0.075282246
203	0x3d7a7fdc	0.061157092
204	0x3de1590b	0.11003312
205	0x3d68ccbe	0.056835882
206	0xbde2c0ed	-0.11071954
207	0xbd3c20bb	-0.04592965
208	0x3e2068ff	0.15665053
209	0xbd70b5c6	-0.058767103
210	0x3c4a941a	0.012364412
211	0x3dce423b	0.10071226
212	0x3e380f1d	0.17974515
213	0x3d1a01c2	0.037599333
214	0x3d5f1b1f	0.054469224
215	0x3e162c61	0.14665367
